Model: "sequential"
_________________________________________________________________
Layer (type)                 Output Shape              Param #   
=================================================================
conv2d (Conv2D)              (None, 60, 41, 24)        456       
_________________________________________________________________
batch_normalization (BatchNo (None, 60, 41, 24)        96        
_________________________________________________________________
activation (Activation)      (None, 60, 41, 24)        0         
_________________________________________________________________
max_pooling2d (MaxPooling2D) (None, 30, 20, 24)        0         
_________________________________________________________________
dropout (Dropout)            (None, 30, 20, 24)        0         
_________________________________________________________________
conv2d_1 (Conv2D)            (None, 30, 20, 32)        6944      
_________________________________________________________________
batch_normalization_1 (Batch (None, 30, 20, 32)        128       
_________________________________________________________________
activation_1 (Activation)    (None, 30, 20, 32)        0         
_________________________________________________________________
max_pooling2d_1 (MaxPooling2 (None, 15, 10, 32)        0         
_________________________________________________________________
dropout_1 (Dropout)          (None, 15, 10, 32)        0         
_________________________________________________________________
conv2d_2 (Conv2D)            (None, 15, 10, 64)        18496     
_________________________________________________________________
batch_normalization_2 (Batch (None, 15, 10, 64)        256       
_________________________________________________________________
activation_2 (Activation)    (None, 15, 10, 64)        0         
_________________________________________________________________
max_pooling2d_2 (MaxPooling2 (None, 7, 5, 64)          0         
_________________________________________________________________
dropout_2 (Dropout)          (None, 7, 5, 64)          0         
_________________________________________________________________
conv2d_3 (Conv2D)            (None, 7, 5, 128)         73856     
_________________________________________________________________
batch_normalization_3 (Batch (None, 7, 5, 128)         512       
_________________________________________________________________
activation_3 (Activation)    (None, 7, 5, 128)         0         
_________________________________________________________________
dropout_3 (Dropout)          (None, 7, 5, 128)         0         
_________________________________________________________________
dense (Dense)                (None, 7, 5, 128)         16512     
_________________________________________________________________
dense_1 (Dense)              (None, 7, 5, 10)          1290      
=================================================================
Total params: 118,546
Trainable params: 118,050
Non-trainable params: 496
_________________________________________________________________
